modules/atom01_deploy/inference/src/inference/models/policy_amp.onnx (onnx, 831809 bytes, 8 tensors)

actor.0.weight f4 [512, 78]
000000 b5 7b 21 be b6 c1 95 be 4d 4f 2c be df 5f 31 bf
       -0.15769847 -0.29249352 -0.16827126 -0.6928691
000010 0d be 04 3f f8 dc 04 3e 42 4d b9 3d dd 3c e0 3e
       0.51852494 0.12974918 0.09047939 0.43796435
000020 fb 21 8a 3e ae c9 9f be 27 fc e4 bd 93 ae e2 bb
       0.2697905 -0.31208557 -0.11180907 -0.0069177835
000030 af d4 9e 3e 4e 69 a8 bf ab b9 84 bd 85 36 31 be
       0.3102164 -1.3157136 -0.06480726 -0.17305954
000040 1b 00 2e bf 0a 8b 28 3e d6 f1 26 be b1 bd 5e 3e
       -0.6796891 0.16459289 -0.1630319 0.21752049
000050 73 c8 01 3e 44 e9 05 be 40 9b cb bc 81 7b 0d 3e
       0.12674122 -0.13077265 -0.024854302 0.13816644
000060 dd 15 cc bc 00 f5 71 3e 11 97 3c 3e 6c be 34 be
       -0.024912769 0.23628616 0.18417002 -0.17650765
000070 83 04 8f 3e 7e e5 b7 bc fb 31 b3 bd f2 33 b7 bd
       0.2793313 -0.022448298 -0.087497674 -0.08945455
000080 4a 38 bd bc 86 9c 82 3d b6 8e 46 bd 3d a5 9d bc
       -0.02309813 0.06377511 -0.048475944 -0.01924383
000090 78 69 6a bd bf 35 01 bc d8 bd 89 3c 16 15 eb bc
       -0.05722949 -0.007886349 0.016814157 -0.028696578
0000a0 ab 5f 0e 3c 5e 26 7f 3b 59 56 86 bb 9e e7 e1 bc
       0.008689801 0.003893278 -0.004099649 -0.027576264
0000b0 a1 f4 08 3d 03 26 de bc 6e 13 ac 3c 55 b7 5b 3c
       0.03343642 -0.027117735 0.021005359 0.013410409
0000c0 9b 3c 35 3d c0 e1 bc ba 31 f0 7e bc e6 89 d9 bc
       0.04424725 -0.001441054 -0.015560196 -0.026555013
0000d0 1c 3b 0d 3c d1 87 0b ba 4f f5 f1 3c f0 73 f4 bd
       0.00862005 -0.00053226674 0.029535918 -0.11936176
0000e0 fb af 03 be 72 d4 80 3d ed a3 f1 bc de fc 9d bd
       -0.128601 0.06290521 -0.029497111 -0.07714246
0000f0 4d d1 96 3d 60 85 86 3b b5 72 30 bd 73 8e 97 3d
       0.0736414 0.004105255 -0.043078143 0.07400217
000100 52 7d f5 bc aa 2a 93 3c 8c fc e8 3c 09 b9 a1 bd
       -0.029966984 0.01796468 0.028440736 -0.07896621
000110 00 d4 9f bb 6e 6a 1b 3d 04 42 be 3b c1 3c 8f 3d
       -0.0048775673 0.037943296 0.0058062095 0.0699401
000120 aa c8 09 3d e5 b0 b3 bd 4d f8 4c be a9 78 c8 bd
       0.033638634 -0.08773974 -0.20016594 -0.09788639
000130 41 d9 06 bc 56 c4 9b 3c 64 6a 3c 3e 9d f7 15 bd
       -0.008230508 0.019014519 0.1839996 -0.036613096
000140 f5 e0 dc 3c 0c 66 74 3f bf dc 9e bf f5 f3 40 bd
       0.026962737 0.9546821 -1.2411116 -0.047107656
000150 9e 63 c3 3d b2 0b 78 3d f5 7e d1 3a 29 fd 7a bd
       0.09540485 0.06055803 0.0015983271 -0.06127659
000160 07 3d 33 3e e9 b7 c3 3e ca 1a 2c be d7 42 1d 3f
       0.17503749 0.3822625 -0.16807094 0.61430115
000170 c4 3a 76 be e2 05 73 3e 19 eb fd bd 73 c8 a7 3e
       -0.24045855 0.23732713 -0.12398357 0.32770118
000180 db 6d ba bd af 4a 10 3d 47 3b 85 ba 36 a2 e1 3d
       -0.091029845 0.035227474 -0.0010164761 0.110172674
000190 21 9c b1 3d fa 9d 03 be 45 99 05 3e 1d c4 04 be
       0.08672357 -0.12853232 0.13046749 -0.12965436
0001a0 d2 dd 19 be 8c da dd bd be 27 3e bf e2 d4 9a bf
       -0.15026024 -0.108327 -0.7427939 -1.2096217
0001b0 11 84 5d 3e 1b 92 96 bd b9 4f 94 bc fa 66 80 bc
       0.2163241 -0.07352086 -0.018104421 -0.015674103
0001c0 94 81 c5 bb 35 e1 52 3d 60 b5 44 3c 7a 83 46 bb
       -0.00602741 0.051484305 0.012006134 -0.0030290768
0001d0 fb d6 e5 bb 8b 5d cb bc b1 26 af 39 87 4e 46 3a
       -0.007014153 -0.024824878 0.00033407428 0.0007564802
0001e0 7c c8 64 3b cb 66 57 3b 09 b4 27 3b e0 0a 80 39
       0.0034909537 0.0032867666 0.0025589487 0.00024422165
0001f0 a2 38 19 ba 04 5b bb 39 08 bb 5d 3c 75 ca 68 bc
       -0.0005844926 0.0003573523 0.013533361 -0.014208426
000200 4b 18 d6 ba 23 9a 3c bc 90 39 80 bb 07 e2 be 3b
       -0.0016334144 -0.011511358 -0.003913112 0.0058252844
000210 eb bf f3 bb d2 5e ad bd ef b4 f6 bd e4 b9 b4 3d
       -0.00743865 -0.08465351 -0.12046229 0.08824518
000220 c0 03 90 bc 49 71 3a 3d 43 02 1e bd da 17 ff bc
       -0.017579913 0.045518193 -0.038576376 -0.031139303
000230 2b 57 a0 bc af de b4 3c c7 60 e2 3c 16 4c 50 3c
       -0.019572815 0.02207884 0.027634038 0.012713453
000240 db 1c ea bc 43 47 1a 3a 6f c4 9d bb a3 7c 72 3d
       -0.028578212 0.00058852526 -0.0048146765 0.059200894
000250 69 e8 01 3c 5a 95 5d bd 0d db 0d 3d e6 91 a5 3b
       0.007928946 -0.05409751 0.03463273 0.005052793
000260 91 e5 3f 3e f1 89 34 3e 97 08 e8 bb 5e da e5 bc
       0.18739916 0.17630745 -0.007081102 -0.028058227
000270 a8 94 d8 3d 6d 18 14 be ce 10 cf 3d 28 c7 66 bf
       0.10575229 -0.14462443 0.10110627 -0.9014764
000280 c7 d7 9d bf 2e b2 8b bd c1 1b f1 bc 4b 98 05 be
       -1.2331475 -0.068210945 -0.02943218 -0.13046376
000290 42 09 e0 bb a4 3b 1f bf 13 a1 1f bf 07 1c 3f 3e
       -0.006837041 -0.6220038 -0.62355155 0.18663035
0002a0 5c db b6 3d 8f 6b 18 3f e4 17 8d 3e d9 10 54 be
       0.08928558 0.5953912 0.2755729 -0.20709552
0002b0 54 dd af be 20 57 a1 be 4e 7b 87 3d e6 cb f7 bc
       -0.34348547 -0.31511784 0.066153154 -0.030248594
0002c0 74 09 2c bd c1 28 a4 bd 73 71 bd bd 6b 6b 9f 3c
       -0.042001203 -0.08015586 -0.09250154 0.0194604
0002d0 b7 62 64 3d 3a bd d4 3d 08 ed f2 bd e4 81 74 3e
       0.055758204 0.103876546 -0.118616164 0.23877674
0002e0 3a 4c 0b bf b2 c8 cc be 3e f4 9b 3d 4b a1 37 be
       -0.5441319 -0.39996868 0.07614945 -0.17932622
0002f0 ef e6 68 bc 98 bc 22 bb 59 0a ce 3c 34 e7 20 bd
       -0.014215215 -0.002483165 0.025151419 -0.039282992
000300 2d fd d0 bb 64 0e 29 3c 92 c5 96 bc 6b 2a de bc
       -0.006377837 0.010318372 -0.018404756 -0.027119836
000310 d1 3b 7c bc 9f a7 84 3b 0f fb 07 3c ba 66 30 bb
       -0.015395121 0.0040483023 0.008299603 -0.0026916699
000320 dc aa 66 3c e4 8d 62 bc 05 d5 bc 3b 9e 2a 60 bc
       0.014078822 -0.013827775 0.0057626986 -0.013682036
000330 7c b1 e8 bb 62 5f ab 3a 6a 6e 1a 3c aa 1e 97 3b
       -0.007101236 0.0013074691 0.009425739 0.0046118097
000340 7d a8 d6 bb af 48 3a 3b 47 e6 8c 3a f5 19 bc bb
       -0.006550847 0.002842467 0.001074978 -0.005740399
000350 8c 71 09 3d 96 0e 45 bc 60 35 d5 bd 5e 28 11 bd
       0.033555552 -0.012027403 -0.10410571 -0.035438888
000360 ec d5 7c bd 33 ae 1c 3d 93 94 eb bc 2a ed 10 3d
       -0.06172745 0.038252067 -0.02875737 0.035382427
000370 a5 62 e7 bb cc 8e fc 3c a5 ca 87 3d c3 4d 84 3d
       -0.00706132 0.03082981 0.06630448 0.06460144
000380 d2 c4 96 bd 5b c4 37 bc 2b 53 a3 bd 0f 53 5a 3d
       -0.07361759 -0.011216248 -0.079748474 0.053301867
000390 ba c3 97 bd ee f1 2a 3d d5 ee 80 bb 1e 27 c7 3d
       -0.07410379 0.04173463 -0.003934721 0.09724258
0003a0 63 a8 3e 3d 98 28 a6 3c f8 93 2a 3d c2 70 0a be
       0.046547305 0.020283028 0.04164502 -0.13519576
0003b0 7c 4e 5f 3d 4f 8a 57 bf b3 55 de 3e 1e d9 94 bc
       0.054518208 -0.8419542 0.43424758 -0.018169936
0003c0 13 31 86 bd 81 43 ad 3e 51 6e ba 3e 35 5d ea 3e
       -0.06552329 0.33840564 0.3641229 0.45774236
0003d0 90 41 56 3f ec a0 11 3f 6b 2d a0 be 6c 75 3c 3e
       0.8369379 0.5688617 -0.3128465 0.18404168
0003e0 50 b7 86 ba 23 11 ce 3d c0 f8 10 be 6a 9a 72 be
       -0.001027802 0.10061862 -0.1415739 -0.23691717
0003f0 90 82 a7 3d 3b 4b c8 3d c3 73 73 be 7e 2d 9e be
       0.081792 0.09779974 -0.23774628 -0.30894083

actor.0.bias f4 [512]
000000 2e 37 29 be 99 ac 5b 3c 8d a0 10 bc 4c 68 ac 3d
       -0.16524956 0.01340785 -0.008827341 0.084183306
000010 8b 25 62 3d 1d 97 d9 3c a0 50 c2 bc 34 d6 36 bd
       0.055211585 0.026561314 -0.023720086 -0.044637874
000020 74 c8 4a 3d 4b 9b 00 be 29 dc 16 bc 95 68 ec bc
       0.049507573 -0.1255924 -0.009207764 -0.028858462
000030 75 d7 d4 3d 0d b5 98 bc c7 b2 3b 3c f1 57 16 3e
       0.10392658 -0.01864102 0.011456198 0.14681984
000040 1d b2 34 be 78 70 1f 3c cd 7a 06 ba e2 6a 12 bd
       -0.1764607 0.0097314045 -0.0005129993 -0.035746463
000050 bb 15 ff bd 59 a5 1e 3e ba f2 bd 3d fd 2c 0e bb
       -0.12455317 0.15492763 0.09274812 -0.0021694296
000060 8a 0c a1 bd 8c 17 82 3c 0f 8f ed ba 3f ca 8b bc
       -0.0786372 0.015880369 -0.00181243 -0.017064212
000070 23 9c 51 3d 27 c3 6e bc 87 d3 ef bd 63 6b 5e be
       0.051174294 -0.014572895 -0.117102675 -0.21720652
000080 0a 2e 28 be cc 05 91 3d bc b5 b2 3c 23 af 1a 3e
       -0.16423813 0.07081184 0.021815173 0.15105872
000090 c0 21 32 3d ac 86 59 be b7 e5 e6 bd 24 85 54 3d
       0.043489218 -0.2124278 -0.112742834 0.051884785
0000a0 b6 82 94 3d 91 4c 03 3e ac 29 6b 3d a7 58 ef bc
       0.07251494 0.12822177 0.05741279 -0.029217077
0000b0 92 4d 84 3d 4d 6e 17 3e ea c9 e9 3d 87 78 5e 3c
       0.06460108 0.1478817 0.11415465 0.013578541
0000c0 8e e3 b3 3c 2b c4 43 3d cb ff ae bd 5b 4f 13 3d
       0.021959092 0.047794502 -0.085448824 0.03596435
0000d0 dc 99 e7 3c 2f fa 9a 3d e4 76 f4 bd 91 94 18 3e
       0.028271608 0.0756725 -0.11936739 0.14900424
0000e0 16 32 6d bd 97 e0 81 3d fe 74 16 3b 96 30 b0 3d
       -0.057909094 0.06341665 0.0022957916 0.08603017
0000f0 4f aa 29 bd cf 90 e1 bd 08 68 87 3d 9d 18 9f 3d
       -0.041422185 -0.11013948 0.06611639 0.077683665
000100 e9 59 cb bc 09 bb ef bb c0 fb c1 3d 1e fd 00 be
       -0.024823146 -0.0073159975 0.094718456 -0.12596557
000110 de c6 c7 bd 2e 34 29 be d4 b1 8c bd 7e 33 0e bd
       -0.09754728 -0.16523811 -0.068698555 -0.034717076
000120 9a 0f 9c 3d bb 8a 13 bd db cb f0 bd ef 11 8d 3d
       0.07620163 -0.036020976 -0.11757632 0.06888186
000130 cf bd 72 bd a9 87 42 bd ba c1 72 bd 9a cb 4d 3d
       -0.059263047 -0.047492657 -0.059266783 0.050242998
000140 f6 ef 03 bd 41 bb ca 3d 97 ec 26 3e 83 13 e4 bd
       -0.032211266 0.09898997 0.1630119 -0.11136534
000150 52 3c f6 bd 14 45 dd bd 5c 9b c4 bd 4e 7f bb 3c
       -0.12023224 -0.10804191 -0.09599945 0.022887852
000160 9c 56 01 3e 3c d4 8e bd b5 e0 05 3d 39 f2 9b 3b
       0.12630695 -0.06974074 0.032685 0.0047591
000170 33 73 45 3d 91 0f 37 bd 23 fb f9 bb 8b b4 10 3e
       0.048205566 -0.04469258 -0.007628815 0.14131372
000180 8c 49 d9 3d b2 c5 eb 3c 6d e9 d5 bd 3a 15 86 bd
       0.10609731 0.028780792 -0.10444913 -0.065470174
000190 77 d6 2d bd cd 53 a2 bd 03 ea 06 be 48 1b 98 3c
       -0.042440858 -0.0792614 -0.13175206 0.018567696
0001a0 f6 5f 28 3d d9 69 ae bd 5d b7 da 3d 96 40 0a 3c
       0.04110714 -0.085162826 0.10679505 0.00843825
0001b0 16 31 49 bd 06 d9 a0 bd 1d 3d 78 3d 5c 10 94 3d
       -0.049119078 -0.07853894 0.060605157 0.07229683
0001c0 e6 c3 c4 3b c1 44 bb bd f2 0f 01 3e 2c fe 40 bd
       0.006004798 -0.09143973 0.12603739 -0.047117397
0001d0 b8 6e b7 bd 19 c2 96 3d 97 48 c8 bd c9 ee f0 3c
       -0.08956665 0.0736124 -0.097794704 0.029410737
0001e0 d9 79 da bd 0e 60 32 3d dd 61 85 3d 3e 36 a1 bd
       -0.10667772 0.043548636 0.065128066 -0.07871674
0001f0 fe e3 22 bd 99 a3 0c be 12 d0 82 bd 14 a5 c2 3d
       -0.03976821 -0.13734283 -0.063873425 0.095041424
000200 73 06 a6 bd 07 5f 67 3d 19 7a 11 3e 04 4f 8f bc
       -0.08106699 0.05648711 0.14206733 -0.017493732
000210 ad b2 05 3e 29 78 a6 3d c9 e0 11 3c e5 6e 82 bd
       0.1305644 0.081283875 0.008903691 -0.06368808
000220 c9 04 7f bd d9 18 01 be da 9c 39 be d6 ca b9 bd
       -0.062260423 -0.12607135 -0.1812624 -0.09071891
000230 ba 4e 0c 3e 0c ff dc bd 30 ec be bd 7d bf 85 3c
       0.13701907 -0.10790834 -0.09322393 0.01632666
000240 a5 3d 25 bc a3 54 d7 3d c6 63 ee 3d 2d 0e b2 3d
       -0.010085498 0.1051419 0.11640124 0.0869411
000250 6a 8e a1 bd 97 11 d6 3d c8 de 99 3d 03 54 96 bd
       -0.078884915 0.10452574 0.07513195 -0.07340243
000260 42 ce a4 bc 92 86 09 bd e9 15 15 bd 30 88 15 be
       -0.020117883 -0.033575602 -0.03639785 -0.14602733
000270 d1 5a cb bd c1 9b f7 bd cd 8a 77 3d 9e 52 13 3d
       -0.09929431 -0.120902546 0.060435105 0.03596746
000280 5c 4d 97 bb c1 8e 7a 3d 3e f2 c0 3d e3 97 42 bd
       -0.0046173763 0.061171297 0.09421204 -0.04750813
000290 df 85 01 3d 71 88 1c be ae 8a 9b 3d ec 44 1c bd
       0.03162181 -0.15286423 0.075948104 -0.038151667
0002a0 78 b8 2b 3d 96 2e 05 bd 69 cb d3 bd 5f f8 c4 3d
       0.04192397 -0.03251513 -0.10341532 0.096176855
0002b0 5c e9 c9 3d e1 68 3a bb 4b 75 c2 3d c6 2e 03 3e
       0.09858963 -0.002844386 0.09495028 0.12810811
0002c0 38 37 89 bc 16 8a 11 3d 82 be 9c bb c0 28 f4 bd
       -0.016749963 0.03553208 -0.0047834525 -0.11921835
0002d0 1b cd 58 be 8d b8 a1 bd f1 fc cf bc 24 3b e8 bd
       -0.21171992 -0.078965284 -0.025389167 -0.11339405
0002e0 e5 01 27 be f9 e0 96 3d 3f bd c7 3b 0f 52 91 3b
       -0.16309316 0.07367129 0.006095558 0.004434831
0002f0 ab e2 f2 3d c1 ca b6 bc 2b 50 34 3d 00 e7 05 be
       0.1185964 -0.022313477 0.044021767 -0.13076401
000300 79 21 16 bd 0d 8f 09 3d bf 1d b5 3d 01 ea 08 3e
       -0.036653016 0.03358369 0.08843564 0.13370515
000310 68 f4 0b bd 36 47 dc 3d 3b 76 f4 bd 58 8f 97 bd
       -0.03416863 0.1075577 -0.11936613 -0.074003875
000320 e8 9f 03 be db b5 b0 3d 3a e2 1e 3e 93 bf c9 bd
       -0.12853968 0.08628436 0.15515986 -0.09850993
000330 40 97 36 bd 3d bc 64 bd 41 54 54 bd f5 c4 39 be
       -0.044577837 -0.05584358 -0.051838163 -0.1814154
000340 aa d3 ee 3d f1 29 8e bd f0 56 9b bd 86 3b 0d 3e
       0.116614655 -0.069415934 -0.075849414 0.13792238
000350 2f 50 cd bd 68 59 d0 bc ca 10 87 bd bc a7 88 3c
       -0.100250594 -0.025433257 -0.06594999 0.016681544
000360 d6 49 57 3d c5 d2 17 be 00 da aa 3d 6b b4 99 bc
       0.05256065 -0.14826496 0.083423615 -0.018762788
000370 72 08 5e 3d 5f 94 b5 ba 59 40 d2 bb 28 8e fe bd
       0.054207273 -0.0013853422 -0.0064163622 -0.12429458
000380 95 e2 a8 bb ad 60 3b 3d b8 af c0 3d bf 8e 12 bd
       -0.005153964 0.045746494 0.09408516 -0.035780665
000390 cc 76 78 bd 2e 15 e2 3d 94 25 be bc 66 a6 a6 3c
       -0.06066017 0.11039196 -0.023211278 0.020343017
0003a0 61 8b 17 3e a3 58 ef bb 59 ee 2a be a8 01 14 be
       0.14799263 -0.0073042675 -0.16692485 -0.14453757
0003b0 30 ab f3 bb 97 e9 bf 3d bf f3 ea bc bf 80 d3 bd
       -0.0074361786 0.093707256 -0.02868068 -0.10327291
0003c0 66 74 97 3d c6 1d 54 bc 82 99 29 3d 3a 84 d9 3b
       0.07395248 -0.012946552 0.041406162 0.006638077
0003d0 f3 df 62 bd 25 d8 5b 3d ea cf a4 3c 86 56 c0 bd
       -0.055389356 0.05367293 0.020118672 -0.09391503
0003e0 6f 71 f7 bd 99 06 20 be 4b 9b 8e 3c 2d 36 01 3e
       -0.120821826 -0.15627517 0.017408034 0.12618323
0003f0 b8 3a fb 3d 91 aa 15 3e 77 92 26 3d 38 25 88 3c
       0.12267059 0.14615847 0.040667024 0.01661931

actor.2.weight f4 [256, 512]
000000 7a 6d 79 bd 76 3a 26 3d c3 27 bb 3c 77 e7 64 bc
       -0.06089542 0.040583096 0.022846108 -0.013971201
000010 8c bf 04 3c 29 6e 93 3b 83 ba e3 bd e0 71 6b 3d
       0.008102309 0.004499216 -0.11119559 0.057481647
000020 62 f6 c7 3c 91 25 8b bd 1c 7d 6a 3d 87 cc 71 bd
       0.024409477 -0.067942746 0.05724822 -0.059032943
000030 b7 1a 1c bd f9 64 cb 3d 71 d9 9e 3d 2d 68 28 bd
       -0.038111415 0.099313684 0.077563174 -0.041114975
000040 3e b3 3d bd 42 41 d1 3d 9b b2 36 3c 80 f0 92 3c
       -0.046313517 0.10217525 0.011150981 0.017936945
000050 04 e0 cc 3c f2 0c 04 bd 9b 75 22 3a 02 62 15 3a
       0.025009163 -0.032238908 0.0006197334 0.0005698503
000060 90 b5 3b 3d f0 eb 95 bc be c0 1c bc ad 67 96 bd
       0.04582745 -0.01830098 -0.009567438 -0.07343993
000070 80 21 f7 3c 0c d7 f1 bc 24 5d a9 3a 59 66 61 3d
       0.030167341 -0.029521488 0.0012921435 0.055029247
000080 7a 07 8c 3d 04 a8 a6 bd 2e 93 a3 bc 08 7a 56 3d
       0.068373635 -0.08137515 -0.019967642 0.05236247
000090 3c ed 8f 3b fe 52 35 3d fa ce bd bd 85 4c 5c bd
       0.004392294 0.0442686 -0.09267993 -0.053783912
0000a0 ea f5 e3 bc d2 24 8e bd f4 e8 07 bd b8 d5 53 bd
       -0.027827222 -0.06940617 -0.033181146 -0.05171749
0000b0 3f 03 cc 3c 56 b8 9a bd 2c aa 3a bd 08 16 b6 3c
       0.024903892 -0.075546905 -0.045572445 0.022227302
0000c0 26 d5 4b 3d a1 aa 29 be 26 33 f4 3c 89 1e 02 3d
       0.04976382 -0.16568996 0.029809546 0.0317674
0000d0 19 a7 15 ba c9 24 3a bd 29 00 36 bc 61 91 94 bd
       -0.00057087984 -0.045445237 -0.011108437 -0.07254291
0000e0 c2 17 7c bd 90 76 c8 bc 10 79 81 3d 43 f6 29 be
       -0.061546095 -0.024470598 0.06321919 -0.16597848
0000f0 2d cc 8b bc 22 f7 81 bd 13 fb fd 37 81 29 89 bd
       -0.017065132 -0.06345965 3.0276866e-05 -0.06697369
000100 76 ec 3a 3d 5e 0a 7c 3d 4e 8a c4 bd c5 6a 57 bc
       0.045635663 0.061533324 -0.09596692 -0.013148014
000110 6a 64 49 bd 5a 4d 93 3d b3 e6 94 3d 96 56 20 bd
       -0.049168028 0.07192488 0.07270565 -0.039145075
000120 9c 57 e6 bc fd e3 20 bc ca a4 9c bd 3b 20 27 bc
       -0.028117947 -0.009819982 -0.076486185 -0.010200555
000130 36 05 65 bd ed f3 b4 3d 1a 0b cc bd 9d 2e cc 3d
       -0.055913173 0.08835588 -0.09963055 0.09969828
000140 a4 ec 5c 3d 6c 87 f5 bc 3c 41 f7 3d 46 e5 64 bd
       0.053936616 -0.0299718 0.12072989 -0.055882715
000150 62 ba 91 3d 86 0e 75 ba b0 80 fb 3c 48 cf c7 3d
       0.07115628 -0.00093481725 0.030701011 0.09756333
000160 67 b0 7f 3d 1e 6a 79 bd 50 86 94 3d 40 ef a4 3d
       0.06242409 -0.060892217 0.072521806 0.08053446
000170 f3 0f e8 3c e4 19 25 3b 2b a8 98 bc 17 46 bf bd
       0.028327918 0.0025192434 -0.018634876 -0.093395405
000180 a5 d1 dc 3d c0 9d a6 3c a7 a7 85 bd 43 5b 43 bd
       0.10782174 0.020338893 -0.06526118 -0.047694456
000190 dd 78 02 3d f0 d3 8a bd 2b 9a 15 be de 6c 89 3d
       0.031853545 -0.06778705 -0.14609592 0.06710218
0001a0 aa 5b b1 3d ba 3a 46 3d e6 56 b6 bd f1 d3 13 be
       0.08660062 0.04839585 -0.08903293 -0.14436318
0001b0 eb 8e 03 3d 97 10 a2 3c 5a 50 73 bd 2d b5 95 3d
       0.03211872 0.019783301 -0.0594028 0.07309947
0001c0 f2 93 53 bc 13 ad 8f bd f2 cf b2 bd 33 c2 dd 3c
       -0.012913691 -0.07015433 -0.08731069 0.02707014
0001d0 3c 85 c0 3b c0 57 0b 3d 3f 2d 3e bb 44 37 15 3d
       0.005875258 0.03401923 -0.0029018668 0.03642966
0001e0 c2 1e 55 3c 5f ee 50 bc 20 e8 ba bc e1 8c de 3c
       0.0130078215 -0.012752145 -0.022815764 0.027166786
0001f0 33 81 1c 3e e0 2f f7 3c 23 f1 73 bd 98 a0 c4 3d
       0.1528366 0.030174196 -0.059556138 0.09600943
000200 02 28 10 be c0 3c b1 bd 54 8e 2a 3e 48 1b 6d 3c
       -0.14077762 -0.08654165 0.16655856 0.014471836
000210 f6 39 ba bb f9 ad 29 bd 03 f8 d4 3c 61 9d 13 be
       -0.005683179 -0.04142568 0.025997167 -0.14415504
000220 5c 74 90 3d 08 aa 6d bd 91 31 a0 bd 1e f6 b0 bc
       0.07053444 -0.058023483 -0.07821954 -0.021601733
000230 0a 11 78 bb e6 19 15 3d f1 a6 24 bc 76 72 f3 3d
       -0.0037851953 0.03640165 -0.010049568 0.11887066
000240 d4 9e 3c 3d 72 b0 87 bd 93 46 85 3c ed c3 bf 3c
       0.046049908 -0.06625451 0.016269004 0.023408854
000250 79 9d 06 be 00 cc 6e b9 4b 40 0d 3e f0 e9 cc bd
       -0.13146009 -0.00022773445 0.13794057 -0.100055575
000260 81 4b 38 be b2 58 85 bd 75 2e 71 3d c8 af 4a 3b
       -0.17997552 -0.06511058 0.058882196 0.0030927528
000270 98 c2 0d 3d 84 2b d7 3d e0 ea 28 be 54 28 7c 3d
       0.034609407 0.10506347 -0.16495848 0.061561897
000280 ab b7 3e bd 1a 24 1c 3d 00 45 50 3d 2b 2d ee bd
       -0.04656188 0.038120367 0.050847054 -0.11629709
000290 14 c7 84 3d c4 81 dd bc fe e4 67 3c 8f bc 0f bd
       0.06483284 -0.027039416 0.014153717 -0.035091933
0002a0 da 4e a3 bc 22 cd ae bb 7a e8 1c bc 39 33 72 bd
       -0.01993506 -0.0053345123 -0.009576911 -0.05913088
0002b0 2e a0 79 bc 1b f7 13 bd 7b 9b ec bd 20 5f e1 3d
       -0.015235944 -0.03612433 -0.11553093 0.11004472
0002c0 50 1f c5 bd dc fc 93 bd 89 62 1c bd 55 fc ff bd
       -0.09625113 -0.072259635 -0.038179908 -0.124993004
0002d0 92 c8 9d bd 1d a3 c7 bd 14 c8 53 3c 22 2b 0d bd
       -0.077042714 -0.09747908 0.01292612 -0.034464963
0002e0 9b ef 35 3c 46 78 39 3d 9d 2b e2 3d db 4e ae bd
       0.01110449 0.045280717 0.11043475 -0.08511134
0002f0 13 f1 8c bd 9e e6 c9 bd ae 70 e5 3d 3b 36 48 be
       -0.06881919 -0.0985844 0.112031326 -0.19551937
000300 ff 0b 22 be 96 2c da 3d f7 37 d5 bd 5d c9 20 bd
       -0.15824889 0.10653035 -0.10411065 -0.039254535
000310 df 53 d8 bd 72 8a 84 bd 22 4c 1c 3c 25 0b 9e bc
       -0.10562872 -0.06471719 0.009539636 -0.019292424
000320 96 36 d2 bd 1b f7 00 3e e0 ad fe bb 51 a0 65 bc
       -0.10264318 0.12594263 -0.0077721924 -0.014015273
000330 81 89 8c bb 0a f9 ea bc 87 f8 30 3c 79 da fe 3c
       -0.0042888527 -0.028683204 0.010801441 0.031110035
000340 66 67 9a bd 32 76 37 3d 30 a2 d6 3d 81 a1 fa bd
       -0.07539253 0.044790454 0.104801536 -0.12237836
000350 74 1b 8d bd 23 cd 0a bd da 59 f1 3a f5 d6 89 3d
       -0.06890002 -0.03388704 0.0018413619 0.06730453
000360 ce 02 34 bb ca 26 98 3c 95 bb 87 3d a0 92 87 bd
       -0.0027467492 0.018573184 0.06627575 -0.066197634
000370 1f 7d cf 3d 30 c8 ac bd f8 ff 8e 3c e7 d8 85 3c
       0.10131287 -0.0843662 0.01745604 0.016338779
000380 bd 2c 32 3d 80 70 91 3c 0e 73 90 bd 77 f6 1c 3c
       0.043499697 0.01775384 -0.07053195 0.009580246
000390 fe 5c 4a bd 00 a8 46 3c 11 99 61 bd a0 d5 07 3d
       -0.04940509 0.012125015 -0.055077616 0.033162713
0003a0 37 07 e3 3c 77 4f a0 bd 62 56 99 bc 62 e6 a5 bd
       0.027713401 -0.07827657 -0.018717948 -0.08100583
0003b0 df e7 48 bc 32 4c ab 3a b0 ae 03 3c 8f 72 1f 3c
       -0.012262314 0.0013068973 0.008037254 0.009731903
0003c0 9f b9 6f be fd 01 5f bd ea 0d 85 3c 9e ca d3 3c
       -0.23410653 -0.054445256 0.016241986 0.025853451
0003d0 90 ab 39 3d 95 9a 61 bb 85 bc 5a 3d 88 00 6c bd
       0.04532963 -0.0034424413 0.053402442 -0.057617694
0003e0 26 f6 b6 3d 29 c0 22 be 67 46 10 3b e5 67 aa bd
       0.08933668 -0.15893616 0.002201462 -0.083205976
0003f0 69 81 09 3d 2c 6d 45 3d 6f d4 90 bd 5f 1b 1f ba
       0.03357068 0.048199818 -0.070717685 -0.0006069447

actor.2.bias f4 [256]
000000 51 d8 24 3c 18 44 bb bc ae b2 08 bc 82 49 e5 bc
       0.0100613395 -0.022859618 -0.008343382 -0.027989153
000010 e4 26 75 bd 4c ab 94 bd 70 9c 55 bd 30 82 5c 3d
       -0.059851542 -0.07259235 -0.052151144 0.053835094
000020 ac 84 9b 3c 11 87 03 bd 3d da 83 bd 4f d7 8f 3c
       0.018984161 -0.03211123 -0.0643811 0.017558722
000030 e0 66 44 bd 75 cc 15 bd 0d 1e 3c bd 0d 75 93 bd
       -0.04794967 -0.03657194 -0.045927096 -0.0720006
000040 69 f4 64 bd 4a 04 bc 3b f9 62 c4 bd d4 0a b0 3c
       -0.05589715 0.005737816 -0.0958919 0.021489538
000050 dc 08 2e bd af cb 5f bc 14 2b a4 bc 7d f4 e0 bd
       -0.042488918 -0.013659402 -0.020040073 -0.109841324
000060 a1 b7 64 bd 97 8d ce bc 0d 0e dc bd a6 1d 21 bd
       -0.055839185 -0.025214 -0.107448675 -0.039334916
000070 29 43 b2 bc 9c dd ab bc 59 c1 03 3d 73 59 3f bd
       -0.02176054 -0.020979695 0.032166813 -0.046716165
000080 26 ff b6 3b 2f 71 6c bc 26 ce 28 3c 1a b3 60 bd
       0.0055846153 -0.014431282 0.010303056 -0.054858305
000090 d3 04 fe bc cf 33 05 bd fe 8a 05 bb 53 87 a5 3c
       -0.03100816 -0.03252011 -0.0020377035 0.02020613
0000a0 8d 5c 40 bd f6 c0 e6 bc fb 51 2d 3c b3 48 e2 3b
       -0.046963263 -0.028168183 0.010578628 0.006905639
0000b0 c8 7b 93 bc b4 95 85 bd 02 7a 61 bd ad 37 73 bc
       -0.01800336 -0.06522694 -0.055047996 -0.014844817
0000c0 a1 e0 e3 bc d7 53 45 be 7f d0 4a be 65 d7 9f 3b
       -0.027817072 -0.19270264 -0.19806097 0.004877972
0000d0 bb 71 09 bd 90 6d 25 bd 16 4e c4 bc 64 cb 04 bd
       -0.033555727 -0.04038769 -0.023963016 -0.03242053
0000e0 be b7 aa bc 85 07 7a 3d e9 11 73 bd c8 98 33 bc
       -0.020839568 0.061042327 -0.059343252 -0.010961719
0000f0 07 d3 95 bd d3 29 c6 3c bc 46 5b bc 74 ea 88 3d
       -0.07315641 0.024189865 -0.013383564 0.066853434
000100 58 76 cb 3c c9 b5 42 bd a0 a8 40 bd 00 a9 ff bc
       0.024836704 -0.047536645 -0.047035813 -0.031208515
000110 e3 10 45 bb 92 fa 45 bd 51 64 80 3b fc 88 16 3d
       -0.003006988 -0.048334666 0.0039182086 0.036751732
000120 d1 e6 f7 bc 37 19 a2 3c d4 b0 98 bd 40 26 31 be
       -0.030261429 0.019787414 -0.07455602 -0.17299747
000130 b5 68 1e be a6 99 4a 3c 54 1b ff bd 18 88 95 bd
       -0.1546963 0.012365734 -0.12456384 -0.073013484
000140 7e 33 dc bc 29 e2 a0 3c 4b fe 80 bd 4e e5 08 bd
       -0.026880022 0.019639092 -0.062985025 -0.033421807
000150 dc 28 2c bd 22 84 db bd 57 ba 09 bd f3 d9 ae 3c
       -0.042031154 -0.10718562 -0.033624973 0.02134416
000160 16 20 67 bc ab 78 b6 3c 29 96 54 bd 43 bb 90 bd
       -0.014106771 0.022274336 -0.051901016 -0.07066967
000170 77 a1 e9 3c e8 c8 ae bc 45 5e 4f bc a7 8b bf bd
       0.028519375 -0.021336034 -0.012656753 -0.093528084
000180 59 63 1d 3c 4d 32 26 3d 6a ea 90 3c da 19 0c bd
       0.009606206 0.040575314 0.017689902 -0.03420434
000190 c7 2e 72 bc 81 10 2b bc c3 e8 6f bd f2 ea f2 3c
       -0.01478166 -0.010440947 -0.05857159 0.029653046
0001a0 ae 0b 84 39 93 34 03 bd 5a 54 8c bd 4b 21 e3 bd
       0.00025185704 -0.03203256 -0.06852026 -0.110903345
0001b0 95 6a 1a bd de 48 52 3d 73 f8 1c be 9b dc fc bc
       -0.0376993 0.051339023 -0.15329151 -0.030866912
0001c0 32 a2 da bb 87 e7 7a bd d8 36 e2 3c d3 bd b3 bc
       -0.006672167 -0.061255958 0.027614042 -0.021941101
0001d0 e8 32 a1 bc ba 98 98 bb 07 c4 82 bd 6a 6c cb bb
       -0.019677594 -0.0046568783 -0.063850455 -0.0062079923
0001e0 50 9a 98 bd e3 b5 62 bd d1 f1 b8 3c cc a4 14 3d
       -0.07451308 -0.055349242 0.022576245 0.036289975
0001f0 2b 19 65 bd a6 13 5a bd a7 47 15 bd b7 18 0b bc
       -0.055932205 -0.053241394 -0.036445286 -0.008489779
000200 61 5d 26 3d d3 ee e5 bd 9c 84 da bd 1a 01 3b bc
       0.040616397 -0.11227193 -0.106698245 -0.011413837
000210 4b 97 20 bd 33 06 86 3c 11 78 09 bc 84 81 4c 3d
       -0.039206784 0.016360378 -0.0083904425 0.049928203
000220 44 6b 4a bc 11 63 4e bd be ca d6 bd 46 75 b7 3c
       -0.012354676 -0.050387446 -0.10487889 0.022394788
000230 ee f3 35 bd 6b a9 e8 bd c7 eb 16 bd a5 da 19 bd
       -0.044422083 -0.11360439 -0.03684595 -0.03756203
000240 3a 47 e5 3c 8d e3 cd 3a 86 1f f5 bc ab 23 1b bc
       0.027988065 0.0015708074 -0.029922258 -0.009468953
000250 d9 23 a3 bc 3a c4 9b bd 99 3a 9b bc 08 cc 89 bd
       -0.019914554 -0.076057866 -0.01894884 -0.06728369
000260 32 5f d6 bc 45 c6 97 bd 89 cf 83 bd bf 32 ac bd
       -0.02616844 -0.07410864 -0.064360686 -0.084081165
000270 a6 59 10 bd 88 7f c2 3c d3 1c 97 bb 6c d8 ce bc
       -0.035241745 0.023742452 -0.0046115904 -0.025249682
000280 7b 8f 91 bd 4c f1 ed 3b 8a 3a 30 bd 8c 09 54 3d
       -0.07107445 0.007261431 -0.043024577 0.051766917
000290 b6 2c fa 3c 7c 2e 94 3b 3d 8a 8d 3c 56 5a 20 bc
       0.030538898 0.004522143 0.017277831 -0.009787163
0002a0 c3 1a e8 3b df 53 8f bc e6 84 bd bd 45 58 6c 3c
       0.0070832684 -0.017496048 -0.09253864 0.014425342
0002b0 fe 05 80 bd ac 3c 0f bd 7a d8 9d bd 37 fb 3a bd
       -0.06251143 -0.03496997 -0.07707305 -0.045649733
0002c0 c1 af f3 bd e8 d1 24 bd a4 7a a5 3a 9b 18 6c bd
       -0.11898757 -0.040239245 0.0012625051 -0.057640653
0002d0 47 e4 54 bd 8c 33 9d 3c 5f 5c 92 3d 2d 5c cd bd
       -0.051975515 0.019189619 0.07146525 -0.10027347
0002e0 0b 48 52 bd 88 0a 3a bd 7d f1 b0 bb 58 c6 e3 3c
       -0.051338237 -0.0454202 -0.0053998814 0.027804539
0002f0 ab f5 8b bd 77 c1 94 bc 83 59 b4 bc c3 c3 85 3b
       -0.06833967 -0.018158657 -0.022015339 0.0040821745
000300 f6 69 2a 3c 48 2f e6 ba 8b 78 af bd 94 91 d0 bc
       0.01040124 -0.0017561698 -0.085679136 -0.025460042
000310 4b 93 65 bc 2f bf 1a bd 2f a3 8a bd e7 09 63 bd
       -0.014012168 -0.037779983 -0.06769406 -0.055429365
000320 36 5a 0f bc 4d ce c6 bd 8c dd b6 bd 51 79 79 bc
       -0.008749535 -0.097073175 -0.089289755 -0.015226678
000330 65 4d d3 bb 4d e1 82 3a 5f e2 bd bc e2 40 50 bd
       -0.006448435 0.0009985358 -0.023179231 -0.050843127
000340 d9 cd 70 bd 35 8a 1c bd da 93 2f 3d 0f be 5e 3c
       -0.05879006 -0.038217742 0.04286561 0.013595118
000350 85 ef a4 bd a1 f8 c7 bd 7b 6d cd bd ef 95 f8 bc
       -0.08053497 -0.09764219 -0.10030647 -0.030344931
000360 ec 90 a8 bc da da d3 3b b7 ed db 3b 85 0e fc 3c
       -0.020576917 0.006465298 0.0067116874 0.030768642
000370 80 b7 54 bd 1c 45 af bd a2 55 a8 bd ed 4d bf bd
       -0.05193281 -0.085581034 -0.08219458 -0.09341035
000380 0b 29 8d bd da 46 df 3b 8c 05 98 bd f4 1d 90 bd
       -0.06892594 0.006813866 -0.07422933 -0.07036963
000390 11 77 2c be c7 11 2e 3c b4 2c 37 bd 91 fc 21 bd
       -0.16842295 0.010624356 -0.044720367 -0.039547507
0003a0 9c f3 5d bd d4 fb 9b b8 e7 d5 75 bd bd 61 5b bd
       -0.054187402 -7.4378826e-05 -0.060018446 -0.053560007
0003b0 8b d5 6e bc 0a 07 0b bc c2 5c 3b bd f6 52 f1 bb
       -0.01457728 -0.008485565 -0.045742758 -0.007364626
0003c0 bd 8d bc 3c 82 7d 29 bc 2d ea b4 bc d3 aa 4e bd
       0.023016805 -0.010344865 -0.02208432 -0.05045588
0003d0 ba b8 60 bd ae 21 58 bd 0d 09 4a bb c9 b3 03 bd
       -0.05486367 -0.052766494 -0.0030828149 -0.03215388
0003e0 72 e6 1a bb aa 3c 71 bd c9 a5 e0 3c 70 4f ae bc
       -0.0023635891 -0.058895744 0.027422803 -0.021278113
0003f0 b1 4b 10 bd 5e c5 d5 bc ce 08 0d bd dd 23 99 bd
       -0.035228435 -0.026095089 -0.034432225 -0.074775435

actor.4.weight f4 [128, 256]
000000 18 83 4a bd ab 89 72 3d a3 53 33 3a fe 63 08 3c
       -0.049441427 0.05921332 0.0006840771 0.008324621
000010 c8 14 67 3d cf 62 8d 3d a1 61 01 bd 38 36 26 bc
       0.056416303 0.06903612 -0.031587247 -0.010144763
000020 c1 6f 3f 3d 7f bb 4b bd 95 49 00 3d b9 ff 48 3d
       0.046737436 -0.049739357 0.031320173 0.049072
000030 d5 cc 1f bd b5 48 91 bd fb 6f 9a bc 80 5a 03 bd
       -0.039013702 -0.07093946 -0.018852225 -0.03206873
000040 f7 9e 73 3d ed dd 82 bd f3 66 17 3b 1e 46 17 3c
       0.059477773 -0.06389985 0.0023102134 0.009233026
000050 27 d8 bf bd fe 8b b7 3d eb 2b a4 3c d8 60 3e bd
       -0.093674 0.08962248 0.020040473 -0.046479076
000060 69 d7 ca bc c0 b0 8f bd 7a c9 46 bd ed ee 3f bd
       -0.024760919 -0.07016134 -0.048531987 -0.046858717
000070 2b 51 64 bd eb a8 88 bc 49 3e 21 bd 58 af a0 3d
       -0.05574147 -0.016682109 -0.03936604 0.07845944
000080 33 f0 01 bd 45 d9 07 3d 62 27 0c 3d 6d 21 2f bc
       -0.031723212 0.03316619 0.034217246 -0.010689122
000090 49 48 02 bd f5 c6 43 bb d2 5b 0d bc e1 c8 ec 3b
       -0.031807218 -0.0029873226 -0.008627849 0.007226095
0000a0 10 5f a9 bc 6d f6 85 bd bd 4e 75 3b 9c 41 a4 bc
       -0.020675212 -0.065411426 0.0037430965 -0.020050816
0000b0 ce 1f 3b bb 07 a6 2a bd 41 91 0c 3d 18 35 8c bd
       -0.0028552893 -0.041662242 0.034318212 -0.06846064
0000c0 fa f8 30 3c d4 1a 10 3d 70 f8 63 3c f7 f9 ab 3c
       0.010801548 0.035181835 0.013914213 0.020993216
0000d0 85 75 49 3d 44 9e cc 3c 4e 3d be bd 00 b4 7b bc
       0.04918434 0.02497781 -0.09289037 -0.01536274
0000e0 5f 80 2d 3c b4 89 8b 3c bb e5 03 3c 70 53 6c 3c
       0.010589688 0.017033435 0.0080503775 0.01442419
0000f0 c6 ff 8c 3c bc e1 f7 bc eb c9 02 bd 6c 7e 33 bd
       0.017211806 -0.030259006 -0.031930845 -0.043821737
000100 71 80 b9 bc 10 e4 33 bd ba 35 1a 3d 88 38 53 ba
       -0.022644253 -0.04391867 0.037648894 -0.0008057435
000110 cb b5 81 bd b5 95 91 3d c0 27 a7 3c 80 cf 1e 3d
       -0.063335024 0.071086325 0.020404696 0.038772106
000120 bb c8 3b bd b8 3c 2c 3c 0a 22 a8 bb 36 38 65 bd
       -0.04584573 0.010512523 -0.005131011 -0.05596181
000130 48 18 9e bc 9e b6 8a bb e8 81 9b bd 14 4f 68 3d
       -0.019298688 -0.0042331954 -0.07593137 0.05671604
000140 e0 cc 1d 3d dd d3 8e 3b 2c 3d 93 bc d5 6c 7a 3d
       0.038525462 0.004358752 -0.017973505 0.061138947
000150 de 39 ab bc 9b ec ba 3b 28 1a a9 3d 0b fd bb 3d
       -0.020901617 0.005704475 0.08256942 0.091791235
000160 95 e1 f7 3c 46 4c f9 bc 2f 74 46 3d ea b4 b2 3c
       0.030258933 -0.030431878 0.048450645 0.021814782
000170 74 54 b8 b9 b4 d4 fa 3b 17 36 ad 3c dc 53 14 3d
       -0.00035158137 0.0076547507 0.021143956 0.036212787
000180 c9 7c f8 3d ec a0 5e bd 32 98 53 3d 78 5e f8 3a
       0.12133176 -0.054352686 0.051658817 0.0018949052
000190 d2 37 c0 bc 94 54 c2 bc d9 5b d5 bc 16 f6 d8 ba
       -0.023464117 -0.02372197 -0.026044773 -0.0016552832
0001a0 58 4b 15 be c7 40 69 3d d6 ce 59 bd 9a c9 5c bd
       -0.14579523 0.056946542 -0.05317577 -0.0539032
0001b0 49 80 54 3d 1e 7a 2b 3d ae 89 3d 3d 4b 7c 37 bc
       0.051880155 0.041864507 0.04627388 -0.011199067
0001c0 01 41 b6 3c fe 40 22 3d bb 0f df 3c fc c4 41 3d
       0.022247793 0.039612763 0.02722918 0.047307
0001d0 5a 6a a0 3c ee fd ea 3c ac 2f f1 3b f7 22 18 3c
       0.019581962 0.028685536 0.0073604193 0.00928568
0001e0 43 34 0b bc 2f 49 5d 3d 9f 8c ef 3c c2 5c 8e 3d
       -0.008496347 0.05402487 0.029241858 0.06951286
0001f0 6d b6 8d 3d b8 5e d7 3d 87 4f 30 3d 85 b4 d4 3c
       0.069195606 0.10516113 0.043044593 0.025964985
000200 88 20 82 3e 07 0b 7a 3d d5 0a 37 bd 11 48 3c 3d
       0.25415444 0.061045673 -0.044688065 0.045967165
000210 8f 11 5b 3d 0e da 57 bd 1e ef c7 3d c5 aa 95 3d
       0.053483542 -0.052698188 0.09762405 0.07307962
000220 a8 06 e5 3b 33 4d 76 bd 79 a0 ea 3d c9 a8 8d bc
       0.006989319 -0.060132217 0.11456389 -0.017292397
000230 98 29 8e 3a 36 b1 8a 3d ce cb cf bc cb f9 50 3c
       0.0010846136 0.067720816 -0.025365736 0.012754868
000240 2c ab f9 3c 79 a7 2e bd f3 b5 bd 3c 01 2b f1 bc
       0.030477129 -0.042640183 0.02315805 -0.029439451
000250 70 1d 64 3d 2b 76 9c bc 65 14 48 3c ed 1f 25 3d
       0.055692136 -0.019099316 0.012211894 0.04031365
000260 3b 2a d8 3c 4a 5c 5e 3d 9d 08 6f 3c 1c 0c 86 3e
       0.026387325 0.054287232 0.014589456 0.26181114
000270 94 50 58 bd 93 82 56 bc 77 1d a0 bb 6d 3d ae 3d
       -0.05281122 -0.013092655 -0.004886325 0.0850781
000280 16 ec cd bb 67 a2 22 3c a4 50 4c 3b 0d 9d 5e 3d
       -0.006284247 0.009926415 0.0031175995 0.054348994
000290 90 0a ab 3d f5 80 4e 3c bb 59 61 3d 5d e8 1b 3d
       0.08351624 0.012603988 0.055017214 0.038063396
0002a0 c0 a9 ec bc aa 90 3d bd 6d f7 94 bb 9a 1a 49 3b
       -0.028889537 -0.04628054 -0.004546097 0.0030686022
0002b0 83 9f 3b 3d f6 0f f0 bc b6 ce 8f 3c 6a 3e a0 bd
       0.04580642 -0.029304486 0.017554622 -0.078244045
0002c0 be 3d 5f bd 74 68 8d 3d 86 4d bd 3d 03 1d 6c 3d
       -0.05450224 0.069046885 0.09243302 0.057644855
0002d0 f6 ae 94 3d 3c 44 16 bc 2e bd 1d bd 79 4e 8a 3d
       0.07259934 -0.009171542 -0.038510494 0.06753249
0002e0 b6 49 0b 3e a5 17 31 bd b0 07 3c bd 3c 27 ac bb
       0.13602337 -0.04323544 -0.04590577 -0.0052537005
0002f0 62 c0 e3 bb df 36 e1 bb cb c0 b8 3b c7 6e 20 3d
       -0.006950424 -0.006872996 0.005638217 0.039168146
000300 28 c1 b6 bd 23 fc c0 bd 08 18 ca bc 2d 1a c3 3d
       -0.089235604 -0.09423091 -0.024669662 0.09526477
000310 2c 40 3e bd 49 ab 85 bc 0c de f6 3c 79 90 0e bd
       -0.046447918 -0.016317027 0.030135177 -0.03480575
000320 d6 5e 6a bd 8a d9 ff bb d7 d5 36 3d 84 fd 57 3d
       -0.05721935 -0.007807915 0.044637527 0.052732006
000330 ff cb d0 3d b3 57 cd bc 40 92 74 3d f7 98 65 3d
       0.10195159 -0.025066232 0.059709787 0.05605408
000340 22 8e 98 bd 72 98 a8 3c ce 77 e5 3b 50 32 cb bc
       -0.07448985 0.020580504 0.007002807 -0.024804264
000350 52 2b 99 3c 0b e3 bc bc 89 71 8e 3c f5 41 89 3d
       0.018697415 -0.023057481 0.017388122 0.067020334
000360 3a 88 00 3d 9b ec 15 3d 1a 94 6b 3d 20 89 9b 3c
       0.031379916 0.036602598 0.057514288 0.018986285
000370 1e 8f 16 3d c4 90 da bc 57 3f 70 bd cc 5e fa 3c
       0.03675758 -0.026680358 -0.058654156 0.03056278
000380 23 08 f5 bc bc 0b c1 bb 90 aa ec bd f1 e5 e4 3c
       -0.029911106 -0.0058912914 -0.1155597 0.027941676
000390 c6 a9 19 3d 9e ce 9f 3d a2 63 05 3d 1f 8a 30 3d
       0.037515424 0.07803081 0.03256572 0.043100473
0003a0 70 6f e6 3b 66 07 97 3b a7 c2 aa 3b 1a a6 d9 3c
       0.0070323274 0.0046090363 0.0052111926 0.026568461
0003b0 18 88 64 3b 1f c8 5a 3d 0f 75 1f 3c bd 78 6a 3c
       0.0034871157 0.053413507 0.009732499 0.014311013
0003c0 20 cb fb 3b 95 8c 62 bd 79 e4 9b bc bc 2d 1a 3c
       0.0076841265 -0.05530985 -0.019029843 0.009410318
0003d0 45 72 ab bc e4 80 e1 bb 35 e9 6c 3d 2c 54 5f 3d
       -0.020928511 -0.00688182 0.05783959 0.054523632
0003e0 49 f1 cb 3c 8b 34 13 3e 65 83 59 bd 09 af 99 3d
       0.024895327 0.14375512 -0.053103823 0.075040884
0003f0 7d 2e f6 3c d1 2b d6 bc 87 9e 3c ba a3 f2 18 bc
       0.030051464 -0.02614394 -0.0007195253 -0.009335193

actor.4.bias f4 [128]
000000 a1 3f 04 3d d1 e8 64 bd ec a8 20 3d ae e8 98 bd
       0.032287244 -0.055886094 0.039223596 -0.07466255
000010 1c d5 35 3c 41 97 cd bb d5 8b 5d bd f4 f9 7b bd
       0.0110981725 -0.0062741344 -0.054088432 -0.06151767
000020 30 3c 47 bc bf 2d 53 3a 17 60 5f bc 8e 86 0d 3d
       -0.012160346 0.0008055828 -0.013633749 0.03455215
000030 1f c0 a2 bd d7 b3 0f 3d 5d cb a7 3c 1a 03 f1 3d
       -0.079468004 0.035083618 0.020482713 0.1176817
000040 1b 18 8d bd 70 f0 89 bd 14 a0 dc 3c c5 de 70 bd
       -0.068893634 -0.06735313 0.0269318 -0.0588062
000050 f6 e9 36 bd a6 9f b7 bd 48 fc bd 3d 49 ff 1e 3c
       -0.044656716 -0.089659974 0.092766345 0.009704419
000060 a0 6e 89 3d 7e 8c 53 bd 03 15 3c ba 77 0a d8 bb
       0.06710553 -0.051647656 -0.0007174762 -0.0065930444
000070 2c 75 f6 3b 94 82 6f bd 64 ab fb bc 55 42 9a 3d
       0.007521292 -0.05847414 -0.030721374 0.07532183
000080 64 83 05 bd 5f f1 4b bd c1 42 83 bd da 3e 62 bd
       -0.032596007 -0.049790736 -0.06409217 -0.05523572
000090 36 71 66 3d fd 92 69 bc 6d d5 c0 3a f2 5f 78 bc
       0.05626031 -0.014256236 0.0014712043 -0.015159594
0000a0 a8 8f 0d bd 98 2f 26 bd 72 a7 e0 3c b7 c5 d1 3a
       -0.03456083 -0.040572733 0.027423594 0.0016004358
0000b0 f4 35 cb bc 3c 9d 5f bd b3 79 f5 3c 2f 7c 80 bd
       -0.024806 -0.05459331 0.029965257 -0.06273686
0000c0 b2 c9 3b 3d 6f 05 87 3d 7b cc e1 3c ca 67 37 3c
       0.04584665 0.06592833 0.027563324 0.011194179
0000d0 37 11 18 bb ce af 35 3b ad 6e 79 bc e6 54 cf 3d
       -0.002320362 0.0027723196 -0.015224141 0.10123615
0000e0 48 e8 bc 3c 28 e4 c7 3d cd 3b 44 bd 1a 5d 6a 3d
       0.02305998 0.09760314 -0.047908593 0.057217695
0000f0 72 13 ae bd c2 a9 56 3b cc a6 71 bd 13 e2 ce 3c
       -0.08499803 0.0032754992 -0.05899696 0.025254285
000100 93 c1 54 bd 91 50 b0 bd 05 10 89 bd 6b ea b5 3c
       -0.05194242 -0.08609117 -0.066925086 0.022206506
000110 ce 3b 7f bc 24 fd 83 bd 9c 2b 11 3d b4 2f ff bb
       -0.015578223 -0.06444767 0.03544198 -0.007787669
000120 38 2e a8 3d 5e 98 6a bd de 88 57 3c 58 d5 30 bc
       0.082119405 -0.057274215 0.01315519 -0.010793053
000130 52 0b 49 3d 18 7d 07 bd 0a 0b 00 be 3b 25 b8 3d
       0.04908306 -0.033078283 -0.12504211 0.08991476
000140 40 71 52 3d 1f 7c 35 bd 7b 5d 36 bd ad 4d 8e bd
       0.051377535 -0.044307824 -0.044522744 -0.06948409
000150 76 50 c5 bc 32 aa 5b 3c 3a b4 a4 3d 0c da a6 3d
       -0.024086218 0.013407277 0.08042188 0.08147058
000160 84 84 df 3c a3 25 5d 3d 96 dd 7a 3c a8 6a b3 3c
       0.027284868 0.05399097 0.015311619 0.021901444
000170 68 00 51 3d d3 25 30 3d 4f 84 8c 3d 08 e8 53 3c
       0.051025778 0.043004822 0.06861173 0.0129337385
000180 93 20 83 bc d8 20 e1 3d f1 bf 8c 3d 24 ce 10 bd
       -0.016006744 0.109925926 0.068725474 -0.03535284
000190 9d 28 8b 3d e9 e4 29 3d ea ff ac 3c 2e 7d 7f bd
       0.06794856 0.04147807 0.021118123 -0.06237524
0001a0 e0 df 0c bc b9 f2 19 3d 67 db b7 bd 47 63 a3 3d
       -0.008598298 0.037584994 -0.089773946 0.0797792
0001b0 16 3e 26 bd b5 87 e7 bd 30 6a f2 bc 85 aa ce bd
       -0.040586554 -0.11305181 -0.02959165 -0.10091118
0001c0 97 50 3d 3d 9e ce 00 bd 3d 9a e5 bd f7 cb d7 bc
       0.046219435 -0.031447046 -0.11211059 -0.026342375
0001d0 eb 97 a1 3d 38 32 bb bb 09 ca e0 3d 8a f3 20 bd
       0.07890304 -0.0057127737 0.10976035 -0.039294757
0001e0 05 0d a5 bc 32 97 11 3d e4 c2 88 3d 8a f0 cb bc
       -0.02014781 0.03554458 0.066777974 -0.024894971
0001f0 48 2b b6 3d c0 5b 88 bd b3 0d 59 3c c7 21 1e bd
       0.08894974 -0.06658125 0.013247895 -0.03860643

actor.6.weight f4 [23, 128]
000000 db 58 dd 3b df 47 45 3d 8f 58 56 3c f3 85 3d 3d
       0.006754977 0.048164245 0.013082637 0.046270322
000010 f9 4e 4b bc 73 f3 00 3d e8 fc 9f 3d e1 d7 49 ba
       -0.012408965 0.03148217 0.0781191 -0.000769971
000020 d3 3a 86 bc d0 40 7d bd 40 6b 22 3d 78 1c 57 bd
       -0.016385471 -0.06182939 0.039653063 -0.052517384
000030 01 4a e3 3c 1b cc 12 3d 33 d1 60 3c 4f 3b 19 bd
       0.027745249 0.03583918 0.013721752 -0.037410077
000040 2c d4 1f bd 56 88 77 bc 14 bb 0f 3d 3f 14 01 bd
       -0.039020702 -0.015108189 0.03509052 -0.03151345
000050 60 27 69 3c 63 f9 a8 3d 5c bf dd bc e5 67 78 3d
       0.014230579 0.08250692 -0.027068786 0.060645957
000060 bb 9f f8 3c 53 1b f1 bc e7 dd 75 3c d6 c5 10 bd
       0.030349603 -0.029431975 0.015006519 -0.03534492
000070 95 b9 40 bd b9 de 37 bc 61 61 d7 3c e2 31 23 3c
       -0.047051985 -0.011222535 0.026291551 0.009960623
000080 4d 22 cb 3c d0 47 12 bc d6 0e 59 bc f7 ce dd bb
       0.02479663 -0.008928254 -0.013248166 -0.006769057
000090 03 b3 fd b7 4f d7 4a bd a6 1e 9a 3c 84 42 a8 3b
       -3.0243309e-05 -0.04952174 0.018813442 0.0051348824
0000a0 41 73 11 be e5 03 8c bd 88 da 50 3d b8 a8 2a bc
       -0.14204122 -0.0683668 0.050989658 -0.010416202
0000b0 06 e3 3e bd 63 b9 e0 bc 3a 2b 1c bd da 90 a0 3b
       -0.046603225 -0.02743215 -0.03812716 0.00490008
0000c0 18 4a 79 bd 9a 46 f4 3c b0 7f 10 be ec 9f f8 bc
       -0.060861677 0.029818822 -0.14111209 -0.030349694
0000d0 19 72 f0 3b c9 6f a6 3c 99 e5 a5 3a 69 1f b1 bc
       0.0073378203 0.020316975 0.0012656926 -0.021621423
0000e0 2c 19 b1 bc cd 7b 12 3d 5d e9 38 3c d4 c3 22 bd
       -0.021618448 0.035762597 0.011286107 -0.039737538
0000f0 7f ff 25 be c0 c5 df 3c 10 54 ad 3b ff 63 9e bc
       -0.16210745 0.027315974 0.005289562 -0.019334791
000100 2c 28 b5 bd 9d e8 66 3d 92 e7 ca 3d 17 ba 08 3d
       -0.08845553 0.05637418 0.0990745 0.033380594
000110 b8 61 4f ba 22 97 0c bc ef f3 e6 3c 0a f0 ae 3c
       -0.00079109846 -0.008580955 0.028192488 0.021354694
000120 f5 a4 8e 3c 38 68 c9 bd 72 aa 03 bd 5f 0c 6c 3c
       0.017412642 -0.09834331 -0.03214497 0.014407246
000130 e9 98 3d 3c 94 3e fd 3c 3b dd cc bc 1a 74 4b 3d
       0.011572101 0.030913629 -0.025007835 0.04967127
000140 2b 7e 64 3d 9a 78 8c bc 12 bf 82 3d 69 32 37 3d
       0.055784386 -0.017147351 0.063841 0.04472581
000150 24 08 ab bc 8a 3a fa 3c c5 50 07 bd ba 89 f0 3b
       -0.020877905 0.030545492 -0.033036012 0.007340637
000160 e9 dc 65 bd 1d 1d 5f bd 08 a4 9e bd 59 43 61 bd
       -0.05611888 -0.054471124 -0.0774613 -0.05499587
000170 36 d6 b7 3c 22 36 c9 bc 4f bf 47 bd 5c 91 30 38
       0.02244101 -0.024561945 -0.04876643 4.2097046e-05
000180 52 f6 88 3d b6 e5 1c 3d 93 6d cf 3c ee 80 0e bc
       0.06687607 0.038305007 0.025320804 -0.008697731
000190 70 80 0d bd e9 25 37 3c e2 78 71 bd 32 86 d1 bc
       -0.034546316 0.011178472 -0.058953173 -0.025576685
0001a0 3f 5a 23 3d 28 16 8c bd e7 9e b4 bd 1a 01 45 3d
       0.039880987 -0.068401635 -0.08819371 0.048096754
0001b0 de dd 7b 3d 85 7b 93 bc 80 c5 ec 3c 7e a6 69 3d
       0.061490886 -0.018003235 0.02890277 0.057043545
0001c0 70 ab 18 bd c4 c9 b0 bc 96 8c a4 3c d0 4d 96 bd
       -0.03727287 -0.021580584 0.020086568 -0.0733906
0001d0 72 52 9b bc 22 89 da 3d 8a 23 8c 3c f2 1b da 3c
       -0.018960211 0.10670687 0.01710679 0.026624653
0001e0 57 ae 64 3b ec e2 f5 3b be b2 a8 bc c0 63 52 bb
       0.0034893954 0.007503858 -0.020593043 -0.0032102913
0001f0 b4 4e 38 bd 61 14 5c 3d af 6d 49 3d a7 5e 1c 3d
       -0.044996932 0.053730372 0.049176868 0.038176205
000200 6c cc 04 3d 89 b3 0a bd b5 46 d5 3c 31 db 43 3c
       0.032421514 -0.033862624 0.026034692 0.011954115
000210 fc f3 4a ba e3 26 88 3c 69 a1 15 bd cf d6 14 bd
       -0.0007742045 0.016620105 -0.036530886 -0.03633767
000220 b1 d3 5d 3c 96 a2 1a bd 9a da 82 bd 60 29 1b 3d
       0.013539241 -0.03775271 -0.06389351 0.037881255
000230 85 ce d1 3b 77 4c 4b ba 3a a9 8c 3c a2 98 a6 bc
       0.006402793 -0.00077552296 0.017170537 -0.020336453
000240 04 8f c6 bc 23 24 5a bd 8a 85 58 bc 9c 31 00 bc
       -0.024238117 -0.05325712 -0.013215432 -0.007824328
000250 a9 cb 05 bc 3a 63 c5 3c c7 4b 0d 3d 74 97 9d bc
       -0.008166232 0.024095166 0.034496095 -0.019237258
000260 4e 4a d8 3b df 8a f2 bc 2c f9 2d 3d 95 c7 15 3c
       0.0066006547 -0.029607235 0.042473957 0.009141822
000270 71 63 3f 3d ad 6a fb 3c 67 28 a4 3d 75 3d 2a bd
       0.046725694 0.030690515 0.08015519 -0.041562516
000280 ff 5b 16 bc c9 a1 da 3c 83 bf a5 3c 8e 3a de bc
       -0.009177207 0.026688473 0.020232921 -0.02712753
000290 62 5e 1c 3d 4d ec b9 3d b0 86 4e bd 91 75 6e bd
       0.038175948 0.09078274 -0.050421417 -0.05821759
0002a0 46 52 b5 3d 53 c0 56 bd 30 ea 47 3d 16 80 37 bc
       0.08853583 -0.05242951 0.048807323 -0.011199972
0002b0 79 44 53 bd 51 e7 00 3c 81 1a 60 bd 93 22 4f bd
       -0.051578972 0.00786765 -0.054712776 -0.050570082
0002c0 6e e2 12 3d f5 b6 03 bd 6d 47 26 3d 22 b6 e2 bc
       0.03586047 -0.032156903 0.04059546 -0.027674738
0002d0 c6 88 0a bd ca ff 87 bd 97 11 be 3c 10 d3 96 3d
       -0.033821844 -0.06640585 0.023201747 0.07364476
0002e0 6a 61 81 bb 9b 41 c7 3c f5 ca 67 ba d7 f7 de bc
       -0.0039483802 0.024323275 -0.00088421936 -0.027217789
0002f0 df 04 d3 3d b4 cd 57 3d a7 28 8a bc df 03 1b 3d
       0.103036635 0.05268641 -0.016865088 0.03784549
000300 e8 1c 37 bc af dc b8 3d 25 65 79 bd 29 58 39 3d
       -0.011176325 0.09026467 -0.060887475 0.04525009
000310 53 8d 41 bd 27 77 d7 bc 7e 09 8e bb f2 83 ae 3c
       -0.047253918 -0.026301933 -0.0043346277 0.02130315
000320 86 bd b6 3d be e4 10 3e c2 b5 85 bc ec 8a ab bc
       0.089228675 0.14149758 -0.01632202 -0.020940267
000330 15 41 a8 3d 09 39 df bc 4e 21 ae bd be 8b d4 bb
       0.082155384 -0.027248876 -0.08502446 -0.006486385
000340 4e 5f a4 bc 65 6f 07 bd 16 a2 98 bb fb 13 99 bc
       -0.020064976 -0.03306522 -0.004657994 -0.018686285
000350 ef d1 08 3d 3a ca 26 3d a0 af ae bb ef 1e d6 bc
       0.033403333 0.040720202 -0.0053309947 -0.026137797
000360 ce b2 62 bd be 4a b8 bd 69 7f cb bc d3 2a 0f 3d
       -0.055346303 -0.08998631 -0.024841027 0.03495295
000370 03 20 67 3d 97 45 0d 3d 8c a0 9d 3d c6 23 a4 3c
       0.056427013 0.034490194 0.076966375 0.02003659
000380 7a 78 33 bc 5c 95 49 3d 42 c4 75 bc f1 3d e9 bc
       -0.010954017 0.049214706 -0.015000405 -0.028471919
000390 f7 64 8b bc e4 2f a5 bc 00 a7 80 bc 70 14 42 3d
       -0.017015917 -0.020164438 -0.015704632 0.047382772
0003a0 4e 3a 97 bb c1 ed ae 3c df 36 07 3e f2 3e 0a bd
       -0.0046151048 0.021353604 0.13204525 -0.033751436
0003b0 b4 bb 0d be 78 50 2e bd 07 f5 f7 bc b9 81 44 3c
       -0.13841134 -0.04255721 -0.030268205 0.011993819
0003c0 03 90 6e 3d 96 21 87 bb 64 05 9a bc 93 90 96 3d
       0.05824281 -0.004123877 -0.018801399 0.07351794
0003d0 92 5a 50 bb 68 73 20 bc be 67 9c 3c e3 79 07 3c
       -0.0031792265 -0.00979314 0.019092437 0.008268806
0003e0 0e 3b 37 3c df 69 d6 bd d8 0f 99 bc 1b 9c c8 3c
       0.011183513 -0.10469412 -0.018684313 0.0244885
0003f0 20 5f 30 3c 8c b5 40 3d 4a 48 7c 3d 09 fb f2 bc
       0.010764867 0.047048137 0.061592378 -0.029660719

actor.6.bias f4 [23]
000000 40 0e 95 bc 87 c3 12 3c 38 ab af 3b 00 72 87 3d
       -0.018195271 0.00895775 0.005360987 0.06613541
000010 6d 1f 8e bd 48 f4 b2 3d e2 02 23 bc cc b5 cd bd
       -0.06939588 0.08737999 -0.009949418 -0.100444406
000020 0c 53 71 3c b7 4a 46 3d 1e 0d 86 bd f8 d0 d1 3d
       0.014729273 0.048411097 -0.06545471 0.10244936
000030 6b 63 fa 3d cb 95 f0 3c cb ed bc bd 27 a8 23 3c
       0.12225994 0.029368302 -0.09225043 0.009988821
000040 85 57 ba bc 41 33 ff 3b 8c 46 ba 3c 52 b3 9e bb
       -0.02274681 0.0077880924 0.022738717 -0.004843154
000050 06 e5 30 3c e3 4e 84 bd 56 5d 45 bc
       0.010796791 -0.06460359 -0.012046179
